Model: "sequential"
_________________________________________________________________
 Layer (type)                Output Shape              Param #   
=================================================================
 lstm (LSTM)                 (None, 365, 100)          40800     
                                                                 
 dropout (Dropout)           (None, 365, 100)          0         
                                                                 
 lstm_1 (LSTM)               (None, 365, 50)           30200     
                                                                 
 dropout_1 (Dropout)         (None, 365, 50)           0         
                                                                 
 lstm_2 (LSTM)               (None, 50)                20200     
                                                                 
 dropout_2 (Dropout)         (None, 50)                0         
                                                                 
 dense (Dense)               (None, 1)                 51        
                                                                 
=================================================================
Total params: 91,251
Trainable params: 91,251
Non-trainable params: 0
_________________________________________________________________
